…
[2024-08-21 12:56:01,868 INFO] Counters tgt:1992
[2024-08-21 12:56:03,483 INFO] Missing transforms field for corpus_1 data, set to default: [].
[2024-08-21 12:56:03,484 INFO] Missing transforms field for valid data, set to default: [].
[2024-08-21 12:56:03,485 INFO] Parsed 2 corpora from -data.
[2024-08-21 12:56:03,487 INFO] Get special vocabs from Transforms: {'src': [], 'tgt': []}.
[2024-08-21 12:56:03,496 INFO] Building model...
[2024-08-21 12:56:07,572 INFO] NMTModel(
  (encoder): TransformerEncoder(
    (embeddings): Embeddings(
      (make_embedding): Sequential(
        (emb_luts): Elementwise(
          (0): Embedding(32, 256, padding_idx=1)
        )
        (pe): PositionalEncoding()
      )
      (dropout): Dropout(p=0.3, inplace=False)
    )
    (transformer): ModuleList(
      (0): TransformerEncoderLayer(
        (self_attn): MultiHeadedAttention(
          (linear_keys): Linear(in_features=256, out_features=256, bias=False)
          (linear_values): Linear(in_features=256, out_features=256, bias=False)
          (linear_query): Linear(in_features=256, out_features=256, bias=False)
          (softmax): Softmax(dim=-1)
          (dropout): Dropout(p=0.3, inplace=False)
          (final_linear): Linear(in_features=256, out_features=256, bias=False)
          (relative_positions_embeddings): Embedding(21, 64)
        )
        (feed_forward): PositionwiseFeedForward(
          (w_1): Linear(in_features=256, out_features=2048, bias=True)
          (w_2): Linear(in_features=2048, out_features=256, bias=True)
          (layer_norm): LayerNorm((256,), eps=1e-06, elementwise_affine=True)
          (dropout_1): Dropout(p=0.3, inplace=False)
          (dropout_2): Dropout(p=0.3, inplace=False)
        )
        (layer_norm): LayerNorm((256,), eps=1e-06, elementwise_affine=True)
        (dropout): Dropout(p=0.3, inplace=False)
      )
      (1): TransformerEncoderLayer(
        (self_attn): MultiHeadedAttention(
          (linear_keys): Linear(in_features=256, out_features=256, bias=False)
          (linear_values): Linear(in_features=256, out_features=256, bias=False)
          (linear_query): Linear(in_features=256, out_features=256, bias=False)
          (softmax): Softmax(dim=-1)
          (dropout): Dropout(p=0.3, inplace=False)
          (final_linear): Linear(in_features=256, out_features=256, bias=False)
          (relative_positions_embeddings): Embedding(21, 64)
        )
        (feed_forward): PositionwiseFeedForward(
          (w_1): Linear(in_features=256, out_features=2048, bias=True)
          (w_2): Linear(in_features=2048, out_features=256, bias=True)
          (layer_norm): LayerNorm((256,), eps=1e-06, elementwise_affine=True)
          (dropout_1): Dropout(p=0.3, inplace=False)
          (dropout_2): Dropout(p=0.3, inplace=False)
        )
        (layer_norm): LayerNorm((256,), eps=1e-06, elementwise_affine=True)
        (dropout): Dropout(p=0.3, inplace=False)
      )
      (2): TransformerEncoderLayer(
        (self_attn): MultiHeadedAttention(
          (linear_keys): Linear(in_features=256, out_features=256, bias=False)
          (linear_values): Linear(in_features=256, out_features=256, bias=False)
          (linear_query): Linear(in_features=256, out_features=256, bias=False)
          (softmax): Softmax(dim=-1)
          (dropout): Dropout(p=0.3, inplace=False)
          (final_linear): Linear(in_features=256, out_features=256, bias=False)
          (relative_positions_embeddings): Embedding(21, 64)
        )
        (feed_forward): PositionwiseFeedForward(
          (w_1): Linear(in_features=256, out_features=2048, bias=True)
          (w_2): Linear(in_features=2048, out_features=256, bias=True)
          (layer_norm): LayerNorm((256,), eps=1e-06, elementwise_affine=True)
          (dropout_1): Dropout(p=0.3, inplace=False)
          (dropout_2): Dropout(p=0.3, inplace=False)
        )
        (layer_norm): LayerNorm((256,), eps=1e-06, elementwise_affine=True)
        (dropout): Dropout(p=0.3, inplace=False)
      )
      (3): TransformerEncoderLayer(
        (self_attn): MultiHeadedAttention(
          (linear_keys): Linear(in_features=256, out_features=256, bias=False)
          (linear_values): Linear(in_features=256, out_features=256, bias=False)
          (linear_query): Linear(in_features=256, out_features=256, bias=False)
          (softmax): Softmax(dim=-1)
          (dropout): Dropout(p=0.3, inplace=False)
          (final_linear): Linear(in_features=256, out_features=256, bias=False)
          (relative_positions_embeddings): Embedding(21, 64)
        )
        (feed_forward): PositionwiseFeedForward(
          (w_1): Linear(in_features=256, out_features=2048, bias=True)
          (w_2): Linear(in_features=2048, out_features=256, bias=True)
          (layer_norm): LayerNorm((256,), eps=1e-06, elementwise_affine=True)
          (dropout_1): Dropout(p=0.3, inplace=False)
          (dropout_2): Dropout(p=0.3, inplace=False)
        )
        (layer_norm): LayerNorm((256,), eps=1e-06, elementwise_affine=True)
        (dropout): Dropout(p=0.3, inplace=False)
      )
    )
    (layer_norm): LayerNorm((256,), eps=1e-06, elementwise_affine=True)
  )
  (decoder): TransformerDecoder(
    (embeddings): Embeddings(
      (make_embedding): Sequential(
        (emb_luts): Elementwise(
          (0): Embedding(2000, 256, padding_idx=1)
        )
        (pe): PositionalEncoding()
      )
      (dropout): Dropout(p=0.3, inplace=False)
    )
    (layer_norm): LayerNorm((256,), eps=1e-06, elementwise_affine=True)
    (transformer_layers): ModuleList(
      (0): TransformerDecoderLayer(
        (self_attn): MultiHeadedAttention(
          (linear_keys): Linear(in_features=256, out_features=256, bias=False)
          (linear_values): Linear(in_features=256, out_features=256, bias=False)
          (linear_query): Linear(in_features=256, out_features=256, bias=False)
          (softmax): Softmax(dim=-1)
          (dropout): Dropout(p=0.3, inplace=False)
          (final_linear): Linear(in_features=256, out_features=256, bias=False)
          (relative_positions_embeddings): Embedding(21, 64)
        )
        (feed_forward): PositionwiseFeedForward(
          (w_1): Linear(in_features=256, out_features=2048, bias=True)
          (w_2): Linear(in_features=2048, out_features=256, bias=True)
          (layer_norm): LayerNorm((256,), eps=1e-06, elementwise_affine=True)
          (dropout_1): Dropout(p=0.3, inplace=False)
          (dropout_2): Dropout(p=0.3, inplace=False)
        )
        (layer_norm_1): LayerNorm((256,), eps=1e-06, elementwise_affine=True)
        (drop): Dropout(p=0.3, inplace=False)
        (context_attn): MultiHeadedAttention(
          (linear_keys): Linear(in_features=256, out_features=256, bias=False)
          (linear_values): Linear(in_features=256, out_features=256, bias=False)
          (linear_query): Linear(in_features=256, out_features=256, bias=False)
          (softmax): Softmax(dim=-1)
          (dropout): Dropout(p=0.3, inplace=False)
          (final_linear): Linear(in_features=256, out_features=256, bias=False)
        )
        (layer_norm_2): LayerNorm((256,), eps=1e-06, elementwise_affine=True)
      )
      (1): TransformerDecoderLayer(
        (self_attn): MultiHeadedAttention(
          (linear_keys): Linear(in_features=256, out_features=256, bias=False)
          (linear_values): Linear(in_features=256, out_features=256, bias=False)
          (linear_query): Linear(in_features=256, out_features=256, bias=False)
          (softmax): Softmax(dim=-1)
          (dropout): Dropout(p=0.3, inplace=False)
          (final_linear): Linear(in_features=256, out_features=256, bias=False)
          (relative_positions_embeddings): Embedding(21, 64)
        )
        (feed_forward): PositionwiseFeedForward(
          (w_1): Linear(in_features=256, out_features=2048, bias=True)
          (w_2): Linear(in_features=2048, out_features=256, bias=True)
          (layer_norm): LayerNorm((256,), eps=1e-06, elementwise_affine=True)
          (dropout_1): Dropout(p=0.3, inplace=False)
          (dropout_2): Dropout(p=0.3, inplace=False)
        )
        (layer_norm_1): LayerNorm((256,), eps=1e-06, elementwise_affine=True)
        (drop): Dropout(p=0.3, inplace=False)
        (context_attn): MultiHeadedAttention(
          (linear_keys): Linear(in_features=256, out_features=256, bias=False)
          (linear_values): Linear(in_features=256, out_features=256, bias=False)
          (linear_query): Linear(in_features=256, out_features=256, bias=False)
          (softmax): Softmax(dim=-1)
          (dropout): Dropout(p=0.3, inplace=False)
          (final_linear): Linear(in_features=256, out_features=256, bias=False)
        )
        (layer_norm_2): LayerNorm((256,), eps=1e-06, elementwise_affine=True)
      )
      (2): TransformerDecoderLayer(
        (self_attn): MultiHeadedAttention(
          (linear_keys): Linear(in_features=256, out_features=256, bias=False)
          (linear_values): Linear(in_features=256, out_features=256, bias=False)
          (linear_query): Linear(in_features=256, out_features=256, bias=False)
          (softmax): Softmax(dim=-1)
          (dropout): Dropout(p=0.3, inplace=False)
          (final_linear): Linear(in_features=256, out_features=256, bias=False)
          (relative_positions_embeddings): Embedding(21, 64)
        )
        (feed_forward): PositionwiseFeedForward(
          (w_1): Linear(in_features=256, out_features=2048, bias=True)
          (w_2): Linear(in_features=2048, out_features=256, bias=True)
          (layer_norm): LayerNorm((256,), eps=1e-06, elementwise_affine=True)
          (dropout_1): Dropout(p=0.3, inplace=False)
          (dropout_2): Dropout(p=0.3, inplace=False)
        )
        (layer_norm_1): LayerNorm((256,), eps=1e-06, elementwise_affine=True)
        (drop): Dropout(p=0.3, inplace=False)
        (context_attn): MultiHeadedAttention(
          (linear_keys): Linear(in_features=256, out_features=256, bias=False)
          (linear_values): Linear(in_features=256, out_features=256, bias=False)
          (linear_query): Linear(in_features=256, out_features=256, bias=False)
          (softmax): Softmax(dim=-1)
          (dropout): Dropout(p=0.3, inplace=False)
          (final_linear): Linear(in_features=256, out_features=256, bias=False)
        )
        (layer_norm_2): LayerNorm((256,), eps=1e-06, elementwise_affine=True)
      )
      (3): TransformerDecoderLayer(
        (self_attn): MultiHeadedAttention(
          (linear_keys): Linear(in_features=256, out_features=256, bias=False)
          (linear_values): Linear(in_features=256, out_features=256, bias=False)
          (linear_query): Linear(in_features=256, out_features=256, bias=False)
          (softmax): Softmax(dim=-1)
          (dropout): Dropout(p=0.3, inplace=False)
          (final_linear): Linear(in_features=256, out_features=256, bias=False)
          (relative_positions_embeddings): Embedding(21, 64)
        )
        (feed_forward): PositionwiseFeedForward(
          (w_1): Linear(in_features=256, out_features=2048, bias=True)
          (w_2): Linear(in_features=2048, out_features=256, bias=True)
          (layer_norm): LayerNorm((256,), eps=1e-06, elementwise_affine=True)
          (dropout_1): Dropout(p=0.3, inplace=False)
          (dropout_2): Dropout(p=0.3, inplace=False)
        )
        (layer_norm_1): LayerNorm((256,), eps=1e-06, elementwise_affine=True)
        (drop): Dropout(p=0.3, inplace=False)
        (context_attn): MultiHeadedAttention(
          (linear_keys): Linear(in_features=256, out_features=256, bias=False)
          (linear_values): Linear(in_features=256, out_features=256, bias=False)
          (linear_query): Linear(in_features=256, out_features=256, bias=False)
          (softmax): Softmax(dim=-1)
          (dropout): Dropout(p=0.3, inplace=False)
          (final_linear): Linear(in_features=256, out_features=256, bias=False)
        )
        (layer_norm_2): LayerNorm((256,), eps=1e-06, elementwise_affine=True)
      )
    )
  )
  (generator): Linear(in_features=256, out_features=2000, bias=True)
)
[2024-08-21 12:56:07,574 INFO] encoder: 5270272
[2024-08-21 12:56:07,576 INFO] decoder: 7338704
[2024-08-21 12:56:07,576 INFO] * number of parameters: 12608976
[2024-08-21 12:56:07,576 INFO]  * src vocab size = 32
[2024-08-21 12:56:07,576 INFO]  * tgt vocab size = 2000
[2024-08-21 12:56:07,579 INFO] Starting training on GPU: [0]
[2024-08-21 12:56:07,579 INFO] Start training loop and validate every 5000 steps...
…
[2024-08-21 16:51:04,044 INFO] Saving checkpoint ./../output/imdb.title.basics.tsv.filtered.mt75.ts3/nmt_transformer-imdb1/t32059.s23.m2011.ettransformer.l2048.wv256.lr1.b64.e200000/fold0/model_step_200000.pt
[2024-08-21 16:51:06,969 INFO] Missing transforms field for corpus_1 data, set to default: [].
[2024-08-21 16:51:06,969 INFO] Missing transforms field for valid data, set to default: [].
[2024-08-21 16:51:06,971 INFO] Parsed 2 corpora from -data.
[2024-08-21 16:51:06,973 INFO] Get special vocabs from Transforms: {'src': [], 'tgt': []}.
[2024-08-21 16:51:06,982 INFO] Building model...
[2024-08-21 16:51:11,181 INFO] NMTModel(
  (encoder): TransformerEncoder(
    (embeddings): Embeddings(
      (make_embedding): Sequential(
        (emb_luts): Elementwise(
          (0): Embedding(32, 256, padding_idx=1)
        )
        (pe): PositionalEncoding()
      )
      (dropout): Dropout(p=0.3, inplace=False)
    )
    (transformer): ModuleList(
      (0): TransformerEncoderLayer(
        (self_attn): MultiHeadedAttention(
          (linear_keys): Linear(in_features=256, out_features=256, bias=False)
          (linear_values): Linear(in_features=256, out_features=256, bias=False)
          (linear_query): Linear(in_features=256, out_features=256, bias=False)
          (softmax): Softmax(dim=-1)
          (dropout): Dropout(p=0.3, inplace=False)
          (final_linear): Linear(in_features=256, out_features=256, bias=False)
          (relative_positions_embeddings): Embedding(21, 64)
        )
        (feed_forward): PositionwiseFeedForward(
          (w_1): Linear(in_features=256, out_features=2048, bias=True)
          (w_2): Linear(in_features=2048, out_features=256, bias=True)
          (layer_norm): LayerNorm((256,), eps=1e-06, elementwise_affine=True)
          (dropout_1): Dropout(p=0.3, inplace=False)
          (dropout_2): Dropout(p=0.3, inplace=False)
        )
        (layer_norm): LayerNorm((256,), eps=1e-06, elementwise_affine=True)
        (dropout): Dropout(p=0.3, inplace=False)
      )
      (1): TransformerEncoderLayer(
        (self_attn): MultiHeadedAttention(
          (linear_keys): Linear(in_features=256, out_features=256, bias=False)
          (linear_values): Linear(in_features=256, out_features=256, bias=False)
          (linear_query): Linear(in_features=256, out_features=256, bias=False)
          (softmax): Softmax(dim=-1)
          (dropout): Dropout(p=0.3, inplace=False)
          (final_linear): Linear(in_features=256, out_features=256, bias=False)
          (relative_positions_embeddings): Embedding(21, 64)
        )
        (feed_forward): PositionwiseFeedForward(
          (w_1): Linear(in_features=256, out_features=2048, bias=True)
          (w_2): Linear(in_features=2048, out_features=256, bias=True)
          (layer_norm): LayerNorm((256,), eps=1e-06, elementwise_affine=True)
          (dropout_1): Dropout(p=0.3, inplace=False)
          (dropout_2): Dropout(p=0.3, inplace=False)
        )
        (layer_norm): LayerNorm((256,), eps=1e-06, elementwise_affine=True)
        (dropout): Dropout(p=0.3, inplace=False)
      )
      (2): TransformerEncoderLayer(
        (self_attn): MultiHeadedAttention(
          (linear_keys): Linear(in_features=256, out_features=256, bias=False)
          (linear_values): Linear(in_features=256, out_features=256, bias=False)
          (linear_query): Linear(in_features=256, out_features=256, bias=False)
          (softmax): Softmax(dim=-1)
          (dropout): Dropout(p=0.3, inplace=False)
          (final_linear): Linear(in_features=256, out_features=256, bias=False)
          (relative_positions_embeddings): Embedding(21, 64)
        )
        (feed_forward): PositionwiseFeedForward(
          (w_1): Linear(in_features=256, out_features=2048, bias=True)
          (w_2): Linear(in_features=2048, out_features=256, bias=True)
          (layer_norm): LayerNorm((256,), eps=1e-06, elementwise_affine=True)
          (dropout_1): Dropout(p=0.3, inplace=False)
          (dropout_2): Dropout(p=0.3, inplace=False)
        )
        (layer_norm): LayerNorm((256,), eps=1e-06, elementwise_affine=True)
        (dropout): Dropout(p=0.3, inplace=False)
      )
      (3): TransformerEncoderLayer(
        (self_attn): MultiHeadedAttention(
          (linear_keys): Linear(in_features=256, out_features=256, bias=False)
          (linear_values): Linear(in_features=256, out_features=256, bias=False)
          (linear_query): Linear(in_features=256, out_features=256, bias=False)
          (softmax): Softmax(dim=-1)
          (dropout): Dropout(p=0.3, inplace=False)
          (final_linear): Linear(in_features=256, out_features=256, bias=False)
          (relative_positions_embeddings): Embedding(21, 64)
        )
        (feed_forward): PositionwiseFeedForward(
          (w_1): Linear(in_features=256, out_features=2048, bias=True)
          (w_2): Linear(in_features=2048, out_features=256, bias=True)
          (layer_norm): LayerNorm((256,), eps=1e-06, elementwise_affine=True)
          (dropout_1): Dropout(p=0.3, inplace=False)
          (dropout_2): Dropout(p=0.3, inplace=False)
        )
        (layer_norm): LayerNorm((256,), eps=1e-06, elementwise_affine=True)
        (dropout): Dropout(p=0.3, inplace=False)
      )
    )
    (layer_norm): LayerNorm((256,), eps=1e-06, elementwise_affine=True)
  )
  (decoder): TransformerDecoder(
    (embeddings): Embeddings(
      (make_embedding): Sequential(
        (emb_luts): Elementwise(
          (0): Embedding(1992, 256, padding_idx=1)
        )
        (pe): PositionalEncoding()
      )
      (dropout): Dropout(p=0.3, inplace=False)
    )
    (layer_norm): LayerNorm((256,), eps=1e-06, elementwise_affine=True)
    (transformer_layers): ModuleList(
      (0): TransformerDecoderLayer(
        (self_attn): MultiHeadedAttention(
          (linear_keys): Linear(in_features=256, out_features=256, bias=False)
          (linear_values): Linear(in_features=256, out_features=256, bias=False)
          (linear_query): Linear(in_features=256, out_features=256, bias=False)
          (softmax): Softmax(dim=-1)
          (dropout): Dropout(p=0.3, inplace=False)
          (final_linear): Linear(in_features=256, out_features=256, bias=False)
          (relative_positions_embeddings): Embedding(21, 64)
        )
        (feed_forward): PositionwiseFeedForward(
          (w_1): Linear(in_features=256, out_features=2048, bias=True)
          (w_2): Linear(in_features=2048, out_features=256, bias=True)
          (layer_norm): LayerNorm((256,), eps=1e-06, elementwise_affine=True)
          (dropout_1): Dropout(p=0.3, inplace=False)
          (dropout_2): Dropout(p=0.3, inplace=False)
        )
        (layer_norm_1): LayerNorm((256,), eps=1e-06, elementwise_affine=True)
        (drop): Dropout(p=0.3, inplace=False)
        (context_attn): MultiHeadedAttention(
          (linear_keys): Linear(in_features=256, out_features=256, bias=False)
          (linear_values): Linear(in_features=256, out_features=256, bias=False)
          (linear_query): Linear(in_features=256, out_features=256, bias=False)
          (softmax): Softmax(dim=-1)
          (dropout): Dropout(p=0.3, inplace=False)
          (final_linear): Linear(in_features=256, out_features=256, bias=False)
        )
        (layer_norm_2): LayerNorm((256,), eps=1e-06, elementwise_affine=True)
      )
      (1): TransformerDecoderLayer(
        (self_attn): MultiHeadedAttention(
          (linear_keys): Linear(in_features=256, out_features=256, bias=False)
          (linear_values): Linear(in_features=256, out_features=256, bias=False)
          (linear_query): Linear(in_features=256, out_features=256, bias=False)
          (softmax): Softmax(dim=-1)
          (dropout): Dropout(p=0.3, inplace=False)
          (final_linear): Linear(in_features=256, out_features=256, bias=False)
          (relative_positions_embeddings): Embedding(21, 64)
        )
        (feed_forward): PositionwiseFeedForward(
          (w_1): Linear(in_features=256, out_features=2048, bias=True)
          (w_2): Linear(in_features=2048, out_features=256, bias=True)
          (layer_norm): LayerNorm((256,), eps=1e-06, elementwise_affine=True)
          (dropout_1): Dropout(p=0.3, inplace=False)
          (dropout_2): Dropout(p=0.3, inplace=False)
        )
        (layer_norm_1): LayerNorm((256,), eps=1e-06, elementwise_affine=True)
        (drop): Dropout(p=0.3, inplace=False)
        (context_attn): MultiHeadedAttention(
          (linear_keys): Linear(in_features=256, out_features=256, bias=False)
          (linear_values): Linear(in_features=256, out_features=256, bias=False)
          (linear_query): Linear(in_features=256, out_features=256, bias=False)
          (softmax): Softmax(dim=-1)
          (dropout): Dropout(p=0.3, inplace=False)
          (final_linear): Linear(in_features=256, out_features=256, bias=False)
        )
        (layer_norm_2): LayerNorm((256,), eps=1e-06, elementwise_affine=True)
      )
      (2): TransformerDecoderLayer(
        (self_attn): MultiHeadedAttention(
          (linear_keys): Linear(in_features=256, out_features=256, bias=False)
          (linear_values): Linear(in_features=256, out_features=256, bias=False)
          (linear_query): Linear(in_features=256, out_features=256, bias=False)
          (softmax): Softmax(dim=-1)
          (dropout): Dropout(p=0.3, inplace=False)
          (final_linear): Linear(in_features=256, out_features=256, bias=False)
          (relative_positions_embeddings): Embedding(21, 64)
        )
        (feed_forward): PositionwiseFeedForward(
          (w_1): Linear(in_features=256, out_features=2048, bias=True)
          (w_2): Linear(in_features=2048, out_features=256, bias=True)
          (layer_norm): LayerNorm((256,), eps=1e-06, elementwise_affine=True)
          (dropout_1): Dropout(p=0.3, inplace=False)
          (dropout_2): Dropout(p=0.3, inplace=False)
        )
        (layer_norm_1): LayerNorm((256,), eps=1e-06, elementwise_affine=True)
        (drop): Dropout(p=0.3, inplace=False)
        (context_attn): MultiHeadedAttention(
          (linear_keys): Linear(in_features=256, out_features=256, bias=False)
          (linear_values): Linear(in_features=256, out_features=256, bias=False)
          (linear_query): Linear(in_features=256, out_features=256, bias=False)
          (softmax): Softmax(dim=-1)
          (dropout): Dropout(p=0.3, inplace=False)
          (final_linear): Linear(in_features=256, out_features=256, bias=False)
        )
        (layer_norm_2): LayerNorm((256,), eps=1e-06, elementwise_affine=True)
      )
      (3): TransformerDecoderLayer(
        (self_attn): MultiHeadedAttention(
          (linear_keys): Linear(in_features=256, out_features=256, bias=False)
          (linear_values): Linear(in_features=256, out_features=256, bias=False)
          (linear_query): Linear(in_features=256, out_features=256, bias=False)
          (softmax): Softmax(dim=-1)
          (dropout): Dropout(p=0.3, inplace=False)
          (final_linear): Linear(in_features=256, out_features=256, bias=False)
          (relative_positions_embeddings): Embedding(21, 64)
        )
        (feed_forward): PositionwiseFeedForward(
          (w_1): Linear(in_features=256, out_features=2048, bias=True)
          (w_2): Linear(in_features=2048, out_features=256, bias=True)
          (layer_norm): LayerNorm((256,), eps=1e-06, elementwise_affine=True)
          (dropout_1): Dropout(p=0.3, inplace=False)
          (dropout_2): Dropout(p=0.3, inplace=False)
        )
        (layer_norm_1): LayerNorm((256,), eps=1e-06, elementwise_affine=True)
        (drop): Dropout(p=0.3, inplace=False)
        (context_attn): MultiHeadedAttention(
          (linear_keys): Linear(in_features=256, out_features=256, bias=False)
          (linear_values): Linear(in_features=256, out_features=256, bias=False)
          (linear_query): Linear(in_features=256, out_features=256, bias=False)
          (softmax): Softmax(dim=-1)
          (dropout): Dropout(p=0.3, inplace=False)
          (final_linear): Linear(in_features=256, out_features=256, bias=False)
        )
        (layer_norm_2): LayerNorm((256,), eps=1e-06, elementwise_affine=True)
      )
    )
  )
  (generator): Linear(in_features=256, out_features=1992, bias=True)
)
[2024-08-21 16:51:11,183 INFO] encoder: 5270272
[2024-08-21 16:51:11,185 INFO] decoder: 7334600
[2024-08-21 16:51:11,185 INFO] * number of parameters: 12604872
[2024-08-21 16:51:11,185 INFO]  * src vocab size = 32
[2024-08-21 16:51:11,185 INFO]  * tgt vocab size = 1992
[2024-08-21 16:51:11,189 INFO] Starting training on GPU: [0]
[2024-08-21 16:51:11,189 INFO] Start training loop and validate every 5000 steps...
…
